…
, bit=4, data_dir='./dataset/cifar10', epochs=400, gpu='1', job_dir='./test_dir', learning_rate=0.04, lr_decay_step='150,225', momentum=0.9, pretrain_dir='', resume=False, sub_job_dir='./test_dir/vgg_7_bn_4bit', test_model_dir='./test_dir/vgg_7_bn_4bit/model_best.pth.tar', test_only=False, use_pretrain=True, weight_decay=0.0005)
2021-02-17 05:30:32 - INFO - model bit: 4
2021-02-17 05:30:32 - INFO - ==> Building model..
2021-02-17 05:30:41 - INFO - VGG(
  (features): Sequential(
    (conv0): first_conv(
      3, 128, kernel_size=(3, 3), stride=(1, 1), padding=(1, 1), bias=False
      (transform): Linear(in_features=128, out_features=128, bias=False)
    )
    (norm0): BatchNorm2d(128, eps=1e-05, momentum=0.1, affine=True, track_running_stats=True)
    (relu0): ReLU(inplace=True)
    (conv1): FAT_QuantConv2d(
      128, 128, kernel_size=(3, 3), stride=(1, 1), padding=(1, 1), bias=False
      (weight_quant): weight_quantize_fn(
        (transform): Linear(in_features=128, out_features=128, bias=False)
      )
    )
    (norm1): BatchNorm2d(128, eps=1e-05, momentum=0.1, affine=True, track_running_stats=True)
    (relu1): ReLU(inplace=True)
    (pool2): MaxPool2d(kernel_size=2, stride=2, padding=0, dilation=1, ceil_mode=False)
    (conv3): FAT_QuantConv2d(
      128, 256, kernel_size=(3, 3), stride=(1, 1), padding=(1, 1), bias=False
      (weight_quant): weight_quantize_fn(
        (transform): Linear(in_features=256, out_features=256, bias=False)
      )
    )
    (norm3): BatchNorm2d(256, eps=1e-05, momentum=0.1, affine=True, track_running_stats=True)
    (relu3): ReLU(inplace=True)
    (conv4): FAT_QuantConv2d(
      256, 256, kernel_size=(3, 3), stride=(1, 1), padding=(1, 1), bias=False
      (weight_quant): weight_quantize_fn(
        (transform): Linear(in_features=256, out_features=256, bias=False)
      )
    )
    (norm4): BatchNorm2d(256, eps=1e-05, momentum=0.1, affine=True, track_running_stats=True)
    (relu4): ReLU(inplace=True)
    (pool5): MaxPool2d(kernel_size=2, stride=2, padding=0, dilation=1, ceil_mode=False)
    (conv6): FAT_QuantConv2d(
      256, 512, kernel_size=(3, 3), stride=(1, 1), padding=(1, 1), bias=False
      (weight_quant): weight_quantize_fn(
        (transform): Linear(in_features=512, out_features=512, bias=False)
      )
    )
    (norm6): BatchNorm2d(512, eps=1e-05, momentum=0.1, affine=True, track_running_stats=True)
    (relu6): ReLU(inplace=True)
    (conv7): FAT_QuantConv2d(
      512, 512, kernel_size=(3, 3), stride=(1, 1), padding=(1, 1), bias=False
      (weight_quant): weight_quantize_fn(
        (transform): Linear(in_features=512, out_features=512, bias=False)
      )
    )
    (norm7): BatchNorm2d(512, eps=1e-05, momentum=0.1, affine=True, track_running_stats=True)
    (relu7): ReLU(inplace=True)
    (pool8): MaxPool2d(kernel_size=2, stride=2, padding=0, dilation=1, ceil_mode=False)
  )
  (classifier): Sequential(
    (dropout): Dropout(p=0.5, inplace=False)
    (linear2): last_fc(
      in_features=2048, out_features=10, bias=True
      (transform): Linear(in_features=10, out_features=10, bias=False)
    )
  )
)
2021-02-17 05:30:41 - INFO - resuming from pretrain model
2021-02-17 05:30:41 - INFO - After Load Weight, Params: 5.29 (M)
2021-02-17 05:30:41 - INFO - frequency mask, max: 1.000, min: 0.000;  weight alpha: 6.780, activation alpha: 0.538
2021-02-17 05:30:41 - INFO - frequency mask, max: 1.000, min: 0.000;  weight alpha: 3.347, activation alpha: 0.479
…
