…
='resnet_56', batch_size=256, bit=3, data_dir='./dataset/cifar10', epochs=400, gpu='0', job_dir='./test_dir', learning_rate=0.04, lr_decay_step='150,225', momentum=0.9, pretrain_dir='', resume=False, sub_job_dir='./test_dir/resnet_56_3bit', test_model_dir='./test_dir/resnet_56_3bit/model_best.pth.tar', test_only=False, use_pretrain=True, weight_decay=0.0005)
2021-02-17 04:50:46 - INFO - model bit: 3
2021-02-17 04:50:46 - INFO - ==> Building model..
2021-02-17 04:50:53 - INFO - ResNet(
  (conv1): first_conv(
    3, 16, kernel_size=(3, 3), stride=(1, 1), padding=(1, 1), bias=False
    (transform): Linear(in_features=16, out_features=16, bias=False)
  )
  (bn1): BatchNorm2d(16, eps=1e-05, momentum=0.1, affine=True, track_running_stats=True)
  (relu): ReLU(inplace=True)
  (layers): ModuleList()
  (layer1): Sequential(
    (0): BasicBlock(
      (conv1): FAT_QuantConv2d(
        16, 16, kernel_size=(3, 3), stride=(1, 1), padding=(1, 1), bias=False
        (weight_quant): weight_quantize_fn(
          (transform): Linear(in_features=16, out_features=16, bias=False)
        )
      )
      (conv2): FAT_QuantConv2d(
        16, 16, kernel_size=(3, 3), stride=(1, 1), padding=(1, 1), bias=False
        (weight_quant): weight_quantize_fn(
          (transform): Linear(in_features=16, out_features=16, bias=False)
        )
      )
      (bn1): BatchNorm2d(16, eps=1e-05, momentum=0.1, affine=True, track_running_stats=True)
      (relu1): ReLU(inplace=True)
      (bn2): BatchNorm2d(16, eps=1e-05, momentum=0.1, affine=True, track_running_stats=True)
      (relu2): ReLU(inplace=True)
    )
    (1): BasicBlock(
      (conv1): FAT_QuantConv2d(
        16, 16, kernel_size=(3, 3), stride=(1, 1), padding=(1, 1), bias=False
        (weight_quant): weight_quantize_fn(
          (transform): Linear(in_features=16, out_features=16, bias=False)
        )
      )
      (conv2): FAT_QuantConv2d(
        16, 16, kernel_size=(3, 3), stride=(1, 1), padding=(1, 1), bias=False
        (weight_quant): weight_quantize_fn(
          (transform): Linear(in_features=16, out_features=16, bias=False)
        )
      )
      (bn1): BatchNorm2d(16, eps=1e-05, momentum=0.1, affine=True, track_running_stats=True)
      (relu1): ReLU(inplace=True)
      (bn2): BatchNorm2d(16, eps=1e-05, momentum=0.1, affine=True, track_running_stats=True)
      (relu2): ReLU(inplace=True)
    )
    (2): BasicBlock(
      (conv1): FAT_QuantConv2d(
        16, 16, kernel_size=(3, 3), stride=(1, 1), padding=(1, 1), bias=False
        (weight_quant): weight_quantize_fn(
          (transform): Linear(in_features=16, out_features=16, bias=False)
        )
      )
      (conv2): FAT_QuantConv2d(
        16, 16, kernel_size=(3, 3), stride=(1, 1), padding=(1, 1), bias=False
        (weight_quant): weight_quantize_fn(
          (transform): Linear(in_features=16, out_features=16, bias=False)
        )
      )
      (bn1): BatchNorm2d(16, eps=1e-05, momentum=0.1, affine=True, track_running_stats=True)
      (relu1): ReLU(inplace=True)
      (bn2): BatchNorm2d(16, eps=1e-05, momentum=0.1, affine=True, track_running_stats=True)
      (relu2): ReLU(inplace=True)
    )
    (3): BasicBlock(
      (conv1): FAT_QuantConv2d(
        16, 16, kernel_size=(3, 3), stride=(1, 1), padding=(1, 1), bias=False
        (weight_quant): weight_quantize_fn(
          (transform): Linear(in_features=16, out_features=16, bias=False)
        )
      )
      (conv2): FAT_QuantConv2d(
        16, 16, kernel_size=(3, 3), stride=(1, 1), padding=(1, 1), bias=False
        (weight_quant): weight_quantize_fn(
          (transform): Linear(in_features=16, out_features=16, bias=False)
        )
      )
      (bn1): BatchNorm2d(16, eps=1e-05, momentum=0.1, affine=True, track_running_stats=True)
      (relu1): ReLU(inplace=True)
      (bn2): BatchNorm2d(16, eps=1e-05, momentum=0.1, affine=True, track_running_stats=True)
      (relu2): ReLU(inplace=True)
    )
    (4): BasicBlock(
      (conv1): FAT_QuantConv2d(
        16, 16, kernel_size=(3, 3), stride=(1, 1), padding=(1, 1), bias=False
        (weight_quant): weight_quantize_fn(
          (transform): Linear(in_features=16, out_features=16, bias=False)
        )
      )
      (conv2): FAT_QuantConv2d(
        16, 16, kernel_size=(3, 3), stride=(1, 1), padding=(1, 1), bias=False
        (weight_quant): weight_quantize_fn(
          (transform): Linear(in_features=16, out_features=16, bias=False)
        )
      )
      (bn1): BatchNorm2d(16, eps=1e-05, momentum=0.1, affine=True, track_running_stats=True)
      (relu1): ReLU(inplace=True)
      (bn2): BatchNorm2d(16, eps=1e-05, momentum=0.1, affine=True, track_running_stats=True)
      (relu2): ReLU(inplace=True)
    )
    (5): BasicBlock(
      (conv1): FAT_QuantConv2d(
        16, 16, kernel_size=(3, 3), stride=(1, 1), padding=(1, 1), bias=False
        (weight_quant): weight_quantize_fn(
          (transform): Linear(in_features=16, out_features=16, bias=False)
        )
      )
      (conv2): FAT_QuantConv2d(
        16, 16, kernel_size=(3, 3), stride=(1, 1), padding=(1, 1), bias=False
        (weight_quant): weight_quantize_fn(
          (transform): Linear(in_features=16, out_features=16, bias=False)
        )
      )
      (bn1): BatchNorm2d(16, eps=1e-05, momentum=0.1, affine=True, track_running_stats=True)
      (relu1): ReLU(inplace=True)
      (bn2): BatchNorm2d(16, eps=1e-05, momentum=0.1, affine=True, track_running_stats=True)
      (relu2): ReLU(inplace=True)
    )
    (6): BasicBlock(
      (conv1): FAT_QuantConv2d(
        16, 16, kernel_size=(3, 3), stride=(1, 1), padding=(1, 1), bias=False
        (weight_quant): weight_quantize_fn(
          (transform): Linear(in_features=16, out_features=16, bias=False)
        )
      )
      (conv2): FAT_QuantConv2d(
        16, 16, kernel_size=(3, 3), stride=(1, 1), padding=(1, 1), bias=False
        (weight_quant): weight_quantize_fn(
          (transform): Linear(in_features=16, out_features=16, bias=False)
        )
      )
      (bn1): BatchNorm2d(16, eps=1e-05, momentum=0.1, affine=True, track_running_stats=True)
      (relu1): ReLU(inplace=True)
      (bn2): BatchNorm2d(16, eps=1e-05, momentum=0.1, affine=True, track_running_stats=True)
      (relu2): ReLU(inplace=True)
    )
    (7): BasicBlock(
      (conv1): FAT_QuantConv2d(
        16, 16, kernel_size=(3, 3), stride=(1, 1), padding=(1, 1), bias=False
        (weight_quant): weight_quantize_fn(
          (transform): Linear(in_features=16, out_features=16, bias=False)
        )
      )
      (conv2): FAT_QuantConv2d(
        16, 16, kernel_size=(3, 3), stride=(1, 1), padding=(1, 1), bias=False
        (weight_quant): weight_quantize_fn(
          (transform): Linear(in_features=16, out_features=16, bias=False)
        )
      )
      (bn1): BatchNorm2d(16, eps=1e-05, momentum=0.1, affine=True, track_running_stats=True)
      (relu1): ReLU(inplace=True)
      (bn2): BatchNorm2d(16, eps=1e-05, momentum=0.1, affine=True, track_running_stats=True)
      (relu2): ReLU(inplace=True)
    )
    (8): BasicBlock(
      (conv1): FAT_QuantConv2d(
        16, 16, kernel_size=(3, 3), stride=(1, 1), padding=(1, 1), bias=False
        (weight_quant): weight_quantize_fn(
          (transform): Linear(in_features=16, out_features=16, bias=False)
        )
      )
      (conv2): FAT_QuantConv2d(
        16, 16, kernel_size=(3, 3), stride=(1, 1), padding=(1, 1), bias=False
        (weight_quant): weight_quantize_fn(
          (transform): Linear(in_features=16, out_features=16, bias=False)
        )
      )
      (bn1): BatchNorm2d(16, eps=1e-05, momentum=0.1, affine=True, track_running_stats=True)
      (relu1): ReLU(inplace=True)
      (bn2): BatchNorm2d(16, eps=1e-05, momentum=0.1, affine=True, track_running_stats=True)
      (relu2): ReLU(inplace=True)
    )
  )
  (layer2): Sequential(
    (0): BasicBlock(
      (conv1): FAT_QuantConv2d(
        16, 32, kernel_size=(3, 3), stride=(2, 2), padding=(1, 1), bias=False
        (weight_quant): weight_quantize_fn(
          (transform): Linear(in_features=32, out_features=32, bias=False)
        )
      )
      (conv2): FAT_QuantConv2d(
        32, 32, kernel_size=(3, 3), stride=(1, 1), padding=(1, 1), bias=False
        (weight_quant): weight_quantize_fn(
          (transform): Linear(in_features=32, out_features=32, bias=False)
        )
      )
      (bn1): BatchNorm2d(32, eps=1e-05, momentum=0.1, affine=True, track_running_stats=True)
      (relu1): ReLU(inplace=True)
      (bn2): BatchNorm2d(32, eps=1e-05, momentum=0.1, affine=True, track_running_stats=True)
      (relu2): ReLU(inplace=True)
      (downsample): Sequential(
        (0): FAT_QuantConv2d(
          16, 32, kernel_size=(1, 1), stride=(2, 2), bias=False
          (weight_quant): weight_quantize_fn(
            (transform): Linear(in_features=32, out_features=32, bias=False)
          )
        )
        (1): BatchNorm2d(32, eps=1e-05, momentum=0.1, affine=True, track_running_stats=True)
      )
    )
    (1): BasicBlock(
      (conv1): FAT_QuantConv2d(
        32, 32, kernel_size=(3, 3), stride=(1, 1), padding=(1, 1), bias=False
        (weight_quant): weight_quantize_fn(
          (transform): Linear(in_features=32, out_features=32, bias=False)
        )
      )
      (conv2): FAT_QuantConv2d(
        32, 32, kernel_size=(3, 3), stride=(1, 1), padding=(1, 1), bias=False
        (weight_quant): weight_quantize_fn(
          (transform): Linear(in_features=32, out_features=32, bias=False)
        )
      )
      (bn1): BatchNorm2d(32, eps=1e-05, momentum=0.1, affine=True, track_running_stats=True)
      (relu1): ReLU(inplace=True)
      (bn2): BatchNorm2d(32, eps=1e-05, momentum=0.1, affine=True, track_running_stats=True)
      (relu2): ReLU(inplace=True)
    )
    (2): BasicBlock(
      (conv1): FAT_QuantConv2d(
        32, 32, kernel_size=(3, 3), stride=(1, 1), padding=(1, 1), bias=False
        (weight_quant): weight_quantize_fn(
          (transform): Linear(in_features=32, out_features=32, bias=False)
        )
      )
      (conv2): FAT_QuantConv2d(
        32, 32, kernel_size=(3, 3), stride=(1, 1), padding=(1, 1), bias=False
        (weight_quant): weight_quantize_fn(
          (transform): Linear(in_features=32, out_features=32, bias=False)
        )
      )
      (bn1): BatchNorm2d(32, eps=1e-05, momentum=0.1, affine=True, track_running_stats=True)
      (relu1): ReLU(inplace=True)
      (bn2): BatchNorm2d(32, eps=1e-05, momentum=0.1, affine=True, track_running_stats=True)
      (relu2): ReLU(inplace=True)
    )
    (3): BasicBlock(
      (conv1): FAT_QuantConv2d(
        32, 32, kernel_size=(3, 3), stride=(1, 1), padding=(1, 1), bias=False
        (weight_quant): weight_quantize_fn(
          (transform): Linear(in_features=32, out_features=32, bias=False)
        )
      )
      (conv2): FAT_QuantConv2d(
        32, 32, kernel_size=(3, 3), stride=(1, 1), padding=(1, 1), bias=False
        (weight_quant): weight_quantize_fn(
          (transform): Linear(in_features=32, out_features=32, bias=False)
        )
      )
      (bn1): BatchNorm2d(32, eps=1e-05, momentum=0.1, affine=True, track_running_stats=True)
      (relu1): ReLU(inplace=True)
      (bn2): BatchNorm2d(32, eps=1e-05, momentum=0.1, affine=True, track_running_stats=True)
      (relu2): ReLU(inplace=True)
    )
    (4): BasicBlock(
      (conv1): FAT_QuantConv2d(
        32, 32, kernel_size=(3, 3), stride=(1, 1), padding=(1, 1), bias=False
        (weight_quant): weight_quantize_fn(
          (transform): Linear(in_features=32, out_features=32, bias=False)
        )
      )
      (conv2): FAT_QuantConv2d(
        32, 32, kernel_size=(3, 3), stride=(1, 1), padding=(1, 1), bias=False
        (weight_quant): weight_quantize_fn(
          (transform): Linear(in_features=32, out_features=32, bias=False)
        )
      )
      (bn1): BatchNorm2d(32, eps=1e-05, momentum=0.1, affine=True, track_running_stats=True)
      (relu1): ReLU(inplace=True)
      (bn2): BatchNorm2d(32, eps=1e-05, momentum=0.1, affine=True, track_running_stats=True)
      (relu2): ReLU(inplace=True)
    )
    (5): BasicBlock(
      (conv1): FAT_QuantConv2d(
        32, 32, kernel_size=(3, 3), stride=(1, 1), padding=(1, 1), bias=False
        (weight_quant): weight_quantize_fn(
          (transform): Linear(in_features=32, out_features=32, bias=False)
        )
      )
      (conv2): FAT_QuantConv2d(
        32, 32, kernel_size=(3, 3), stride=(1, 1), padding=(1, 1), bias=False
        (weight_quant): weight_quantize_fn(
          (transform): Linear(in_features=32, out_features=32, bias=False)
        )
      )
      (bn1): BatchNorm2d(32, eps=1e-05, momentum=0.1, affine=True, track_running_stats=True)
      (relu1): ReLU(inplace=True)
      (bn2): BatchNorm2d(32, eps=1e-05, momentum=0.1, affine=True, track_running_stats=True)
      (relu2): ReLU(inplace=True)
    )
    (6): BasicBlock(
      (conv1): FAT_QuantConv2d(
        32, 32, kernel_size=(3, 3), stride=(1, 1), padding=(1, 1), bias=False
        (weight_quant): weight_quantize_fn(
          (transform): Linear(in_features=32, out_features=32, bias=False)
        )
      )
      (conv2): FAT_QuantConv2d(
        32, 32, kernel_size=(3, 3), stride=(1, 1), padding=(1, 1), bias=False
        (weight_quant): weight_quantize_fn(
          (transform): Linear(in_features=32, out_features=32, bias=False)
        )
      )
      (bn1): BatchNorm2d(32, eps=1e-05, momentum=0.1, affine=True, track_running_stats=True)
      (relu1): ReLU(inplace=True)
      (bn2): BatchNorm2d(32, eps=1e-05, momentum=0.1, affine=True, track_running_stats=True)
      (relu2): ReLU(inplace=True)
    )
    (7): BasicBlock(
      (conv1): FAT_QuantConv2d(
        32, 32, kernel_size=(3, 3), stride=(1, 1), padding=(1, 1), bias=False
        (weight_quant): weight_quantize_fn(
          (transform): Linear(in_features=32, out_features=32, bias=False)
        )
      )
      (conv2): FAT_QuantConv2d(
        32, 32, kernel_size=(3, 3), stride=(1, 1), padding=(1, 1), bias=False
        (weight_quant): weight_quantize_fn(
          (transform): Linear(in_features=32, out_features=32, bias=False)
        )
      )
      (bn1): BatchNorm2d(32, eps=1e-05, momentum=0.1, affine=True, track_running_stats=True)
      (relu1): ReLU(inplace=True)
      (bn2): BatchNorm2d(32, eps=1e-05, momentum=0.1, affine=True, track_running_stats=True)
      (relu2): ReLU(inplace=True)
    )
    (8): BasicBlock(
      (conv1): FAT_QuantConv2d(
        32, 32, kernel_size=(3, 3), stride=(1, 1), padding=(1, 1), bias=False
        (weight_quant): weight_quantize_fn(
          (transform): Linear(in_features=32, out_features=32, bias=False)
        )
      )
      (conv2): FAT_QuantConv2d(
        32, 32, kernel_size=(3, 3), stride=(1, 1), padding=(1, 1), bias=False
        (weight_quant): weight_quantize_fn(
          (transform): Linear(in_features=32, out_features=32, bias=False)
        )
      )
      (bn1): BatchNorm2d(32, eps=1e-05, momentum=0.1, affine=True, track_running_stats=True)
      (relu1): ReLU(inplace=True)
      (bn2): BatchNorm2d(32, eps=1e-05, momentum=0.1, affine=True, track_running_stats=True)
      (relu2): ReLU(inplace=True)
    )
  )
  (layer3): Sequential(
    (0): BasicBlock(
      (conv1): FAT_QuantConv2d(
        32, 64, kernel_size=(3, 3), stride=(2, 2), padding=(1, 1), bias=False
        (weight_quant): weight_quantize_fn(
          (transform): Linear(in_features=64, out_features=64, bias=False)
        )
      )
      (conv2): FAT_QuantConv2d(
        64, 64, kernel_size=(3, 3), stride=(1, 1), padding=(1, 1), bias=False
        (weight_quant): weight_quantize_fn(
          (transform): Linear(in_features=64, out_features=64, bias=False)
        )
      )
      (bn1): BatchNorm2d(64, eps=1e-05, momentum=0.1, affine=True, track_running_stats=True)
      (relu1): ReLU(inplace=True)
      (bn2): BatchNorm2d(64, eps=1e-05, momentum=0.1, affine=True, track_running_stats=True)
      (relu2): ReLU(inplace=True)
      (downsample): Sequential(
        (0): FAT_QuantConv2d(
          32, 64, kernel_size=(1, 1), stride=(2, 2), bias=False
          (weight_quant): weight_quantize_fn(
            (transform): Linear(in_features=64, out_features=64, bias=False)
          )
        )
        (1): BatchNorm2d(64, eps=1e-05, momentum=0.1, affine=True, track_running_stats=True)
      )
    )
    (1): BasicBlock(
      (conv1): FAT_QuantConv2d(
        64, 64, kernel_size=(3, 3), stride=(1, 1), padding=(1, 1), bias=False
        (weight_quant): weight_quantize_fn(
          (transform): Linear(in_features=64, out_features=64, bias=False)
        )
      )
      (conv2): FAT_QuantConv2d(
        64, 64, kernel_size=(3, 3), stride=(1, 1), padding=(1, 1), bias=False
        (weight_quant): weight_quantize_fn(
          (transform): Linear(in_features=64, out_features=64, bias=False)
        )
      )
      (bn1): BatchNorm2d(64, eps=1e-05, momentum=0.1, affine=True, track_running_stats=True)
      (relu1): ReLU(inplace=True)
      (bn2): BatchNorm2d(64, eps=1e-05, momentum=0.1, affine=True, track_running_stats=True)
      (relu2): ReLU(inplace=True)
    )
    (2): BasicBlock(
      (conv1): FAT_QuantConv2d(
        64, 64, kernel_size=(3, 3), stride=(1, 1), padding=(1, 1), bias=False
        (weight_quant): weight_quantize_fn(
          (transform): Linear(in_features=64, out_features=64, bias=False)
        )
      )
      (conv2): FAT_QuantConv2d(
        64, 64, kernel_size=(3, 3), stride=(1, 1), padding=(1, 1), bias=False
        (weight_quant): weight_quantize_fn(
          (transform): Linear(in_features=64, out_features=64, bias=False)
        )
      )
      (bn1): BatchNorm2d(64, eps=1e-05, momentum=0.1, affine=True, track_running_stats=True)
      (relu1): ReLU(inplace=True)
      (bn2): BatchNorm2d(64, eps=1e-05, momentum=0.1, affine=True, track_running_stats=True)
      (relu2): ReLU(inplace=True)
    )
    (3): BasicBlock(
      (conv1): FAT_QuantConv2d(
        64, 64, kernel_size=(3, 3), stride=(1, 1), padding=(1, 1), bias=False
        (weight_quant): weight_quantize_fn(
          (transform): Linear(in_features=64, out_features=64, bias=False)
        )
      )
      (conv2): FAT_QuantConv2d(
        64, 64, kernel_size=(3, 3), stride=(1, 1), padding=(1, 1), bias=False
        (weight_quant): weight_quantize_fn(
          (transform): Linear(in_features=64, out_features=64, bias=False)
        )
      )
      (bn1): BatchNorm2d(64, eps=1e-05, momentum=0.1, affine=True, track_running_stats=True)
      (relu1): ReLU(inplace=True)
      (bn2): BatchNorm2d(64, eps=1e-05, momentum=0.1, affine=True, track_running_stats=True)
      (relu2): ReLU(inplace=True)
    )
    (4): BasicBlock(
      (conv1): FAT_QuantConv2d(
        64, 64, kernel_size=(3, 3), stride=(1, 1), padding=(1, 1), bias=False
        (weight_quant): weight_quantize_fn(
          (transform): Linear(in_features=64, out_features=64, bias=False)
        )
      )
      (conv2): FAT_QuantConv2d(
        64, 64, kernel_size=(3, 3), stride=(1, 1), padding=(1, 1), bias=False
        (weight_quant): weight_quantize_fn(
          (transform): Linear(in_features=64, out_features=64, bias=False)
        )
      )
      (bn1): BatchNorm2d(64, eps=1e-05, momentum=0.1, affine=True, track_running_stats=True)
      (relu1): ReLU(inplace=True)
      (bn2): BatchNorm2d(64, eps=1e-05, momentum=0.1, affine=True, track_running_stats=True)
      (relu2): ReLU(inplace=True)
    )
    (5): BasicBlock(
      (conv1): FAT_QuantConv2d(
        64, 64, kernel_size=(3, 3), stride=(1, 1), padding=(1, 1), bias=False
        (weight_quant): weight_quantize_fn(
          (transform): Linear(in_features=64, out_features=64, bias=False)
        )
      )
      (conv2): FAT_QuantConv2d(
        64, 64, kernel_size=(3, 3), stride=(1, 1), padding=(1, 1), bias=False
        (weight_quant): weight_quantize_fn(
          (transform): Linear(in_features=64, out_features=64, bias=False)
        )
      )
      (bn1): BatchNorm2d(64, eps=1e-05, momentum=0.1, affine=True, track_running_stats=True)
      (relu1): ReLU(inplace=True)
      (bn2): BatchNorm2d(64, eps=1e-05, momentum=0.1, affine=True, track_running_stats=True)
      (relu2): ReLU(inplace=True)
    )
    (6): BasicBlock(
      (conv1): FAT_QuantConv2d(
        64, 64, kernel_size=(3, 3), stride=(1, 1), padding=(1, 1), bias=False
        (weight_quant): weight_quantize_fn(
          (transform): Linear(in_features=64, out_features=64, bias=False)
        )
      )
      (conv2): FAT_QuantConv2d(
        64, 64, kernel_size=(3, 3), stride=(1, 1), padding=(1, 1), bias=False
        (weight_quant): weight_quantize_fn(
          (transform): Linear(in_features=64, out_features=64, bias=False)
        )
      )
      (bn1): BatchNorm2d(64, eps=1e-05, momentum=0.1, affine=True, track_running_stats=True)
      (relu1): ReLU(inplace=True)
      (bn2): BatchNorm2d(64, eps=1e-05, momentum=0.1, affine=True, track_running_stats=True)
      (relu2): ReLU(inplace=True)
    )
    (7): BasicBlock(
      (conv1): FAT_QuantConv2d(
        64, 64, kernel_size=(3, 3), stride=(1, 1), padding=(1, 1), bias=False
        (weight_quant): weight_quantize_fn(
          (transform): Linear(in_features=64, out_features=64, bias=False)
        )
      )
      (conv2): FAT_QuantConv2d(
        64, 64, kernel_size=(3, 3), stride=(1, 1), padding=(1, 1), bias=False
        (weight_quant): weight_quantize_fn(
          (transform): Linear(in_features=64, out_features=64, bias=False)
        )
      )
      (bn1): BatchNorm2d(64, eps=1e-05, momentum=0.1, affine=True, track_running_stats=True)
      (relu1): ReLU(inplace=True)
      (bn2): BatchNorm2d(64, eps=1e-05, momentum=0.1, affine=True, track_running_stats=True)
      (relu2): ReLU(inplace=True)
    )
    (8): BasicBlock(
      (conv1): FAT_QuantConv2d(
        64, 64, kernel_size=(3, 3), stride=(1, 1), padding=(1, 1), bias=False
        (weight_quant): weight_quantize_fn(
          (transform): Linear(in_features=64, out_features=64, bias=False)
        )
      )
      (conv2): FAT_QuantConv2d(
        64, 64, kernel_size=(3, 3), stride=(1, 1), padding=(1, 1), bias=False
        (weight_quant): weight_quantize_fn(
          (transform): Linear(in_features=64, out_features=64, bias=False)
        )
      )
      (bn1): BatchNorm2d(64, eps=1e-05, momentum=0.1, affine=True, track_running_stats=True)
      (relu1): ReLU(inplace=True)
      (bn2): BatchNorm2d(64, eps=1e-05, momentum=0.1, affine=True, track_running_stats=True)
      (relu2): ReLU(inplace=True)
    )
  )
  (avgpool): AvgPool2d(kernel_size=8, stride=1, padding=0)
  (linear): last_fc(
    in_features=64, out_features=10, bias=True
    (transform): Linear(in_features=10, out_features=10, bias=False)
  )
)
2021-02-17 04:50:53 - INFO - resuming from pretrain model
2021-02-17 04:50:53 - INFO - After Load Weight, Params: 0.96 (M)
2021-02-17 04:50:53 - INFO - frequency mask, max: 1.000, min: 0.001;  weight alpha: 2.089, activation alpha: 0.932
2021-02-17 04:50:53 - INFO - frequency mask, max: 1.000, min: 0.693;  weight alpha: 1.730, activation alpha: 0.568
…
